data.pth (torch, 5055 bytes, 6 tensors)

l1.weight f4 [8, 54]
00000000: e65e 7bbe 5fc3 a83e 9acf 883e 6100 b13d
00000010: ea97 383e 8786 213f f74e d43e 6d60 833e
00000020: 42c6 ff3e 1255 fb3e 28f9 38be 41b4 72be
00000030: cf4f a83e 6447 abbe 4e2d e33e 25d0 90be
00000040: 3147 91bc 0cb7 423f aed7 ebbe f87f 72be
00000050: 2cd6 3fbe 1531 45be f152 67be 9fd5 95bd
00000060: 92cd be3d d891 713d 6b26 ecbe db09 e93e
00000070: 754b 95bd f3ca ab3e 4535 003f fd0c 21be
00000080: b689 bfbd 1ab2 b13e 5b90 f53e 826f 83be
00000090: 376a a7bc b1a9 b83e 90b7 473e 9189 8c3e
000000a0: d591 203f 1352 2abf 4d90 12be 44f9 b73e
000000b0: 4aac 443d 47c2 a73e a544 2cbf 54dd 80be
000000c0: 6a77 d93d 8790 35bf 7d0f 78bd 17e7 e7be
000000d0: 5a26 4c3e ae88 923e 20a6 023f a1a5 b13e
000000e0: fec8 90be daa7 3dbe baa0 8fbe 5c85 083f
000000f0: c6dd 1bbe 71ae 1fbe 68ba 423e ff4a 60be
00000100: 2feb 96be 6db0 523e f7e4 6a3e d83f d53e
00000110: a5ff eb3e ba3b acbd 0a90 73be 3fd5 083f
00000120: 18e6 c13d af07 08bf 05b2 a53e a53e 08bf
00000130: 6b0d 08bf d233 f0be 143c c1bc 376b 95be
00000140: 8db6 953e 93ed 313f 126b 063f 007f e23e
00000150: e65e e93d 9c81 f33e 19c0 693e c302 70be
00000160: ee24 053f 4d4a 3ebe fee5 123f eef8 353e
00000170: 1169 4fbd d3d0 813c 9a63 923c 020f 9f3e
00000180: e2ca 573e f401 0d3f dd30 86be c95a 2f3f
00000190: 9e64 433f c6e1 a03e f7ef 5bbd 4038 b13e
000001a0: eaef 3bbe c5fe 763e 26c9 fbbd 0f48 cd3e
000001b0: e942 4cbe c8ab e2be 0f10 eabe 7711 843e
000001c0: d5d0 6f3e 9c39 623f 1921 5ebd 330e 9bbe
000001d0: fca3 02bf 9210 cbbe fe34 d63e b350 7ebe
000001e0: 5b85 723e ae44 4abe a636 4dbe e306 45be
000001f0: 863a 083f e9f6 653f aaa1 e13e c2e1 233f
00000200: cad1 b8bd 791e f03e b973 153f a27f be3e
00000210: fe96 8ebe f7d0 973e c0ed 033f 5b92 c5be
00000220: e9b5 d63e aca1 71be 54ac 303f 37a8 8abe
00000230: 7133 b3bc b384 16bf da50 32be 48ba e5bd
00000240: 572f be3e 5b1c 0dbf 4066 26be 372e 22be
00000250: 6658 133f 3e76 213f 155e 7ebe ba61 08be
00000260: 61dd babe 2b66 50be 1c23 e9be d06b 62be
00000270: f97f f73e b018 353f 568a ebbd 2124 dd3e
00000280: 14f5 64bd febe f13d eebe de3e e8db ba3b
00000290: 5b82 83be 4f12 413e e4b8 543e 0489 f0be
000002a0: ac10 0c3d 4eea 8fbe 174d 703d beca d0be
000002b0: dd23 c73d 7759 fa3e 0fd4 d63d 7171 d23e
000002c0: e602 62be a827 ba3e 9b38 f53d eebb efbe
000002d0: 63bc 0b3f 9d6f ad3e 3553 b23e 6e08 c43e
000002e0: 4bcc cf3e 2c35 443e ec1e a93e cb30 b83c
000002f0: 4697 2c3f 815a e1be d0e2 f63e d6b6 e6be
00000300: a700 dfbe 58d7 ff3e 4e5b b63e 800f ecbd
00000310: f649 4dbe 68c6 5f3e f64f 1d3f 5153 a7bd
00000320: bd84 e53c 9f66 fabc 5417 75be f773 4a3f
00000330: e79e c13e 5ffe 6dbd 04a3 403e 0311 97bc
00000340: 26df 3a3f 9535 e13e 692f fb3e 6dc6 3a3f
00000350: 770e 873e f75e 0b3f 72f6 bdbd 5792 903e
00000360: bfd9 1d3e 1a59 263e 31fd a33e 069b 603d
00000370: 2b9d cbbe d8ed bbbe 1a35 883e 7760 613e
00000380: fdc0 b63e 76cc 1e3e 5328 093d 0c97 313f
00000390: 01b4 023f e83e 453f 8586 c5bb a257 ee3e
000003a0: 89a0 ee3d afc4 bbbe d888 1cbe f647 2ebe
000003b0: 4bfb 7c3e b3b2 85be 7e37 54be d7f8 e13d
000003c0: feaa fc3e d339 703d 6a13 acbd 7bb9 6bbe
000003d0: 863a f03b 9ada 83be 01c1 85be 3018 2a3f
000003e0: bfb3 a63d 93cd 9f3e 0f61 0c3e f683 e23e
000003f0: 468d d43d 0735 f23e bb57 833e 95a0 863e
-0.2454792 0.32961556 0.26720887 0.086426504 0.180267 0.630959 0.41466495 0.25659505
0.49955946 0.4908834 -0.18063796 -0.23701574 0.3287339 -0.33452904 0.44370502 -0.28283802
-0.017734142 0.7606056 -0.46062988 -0.23681629 -0.18734044 -0.19257005 -0.22590233 -0.073161356
0.09316553 0.058976978 -0.4612306 0.45515332 -0.07289783 0.33553275 0.5008128 -0.15727611
-0.09352438 0.34706193 0.47961697 -0.2567101 -0.02043639 0.36066964 0.19503617 0.27448705
0.6272252 -0.66531485 -0.14312859 0.35932362 0.04801587 0.3276541 -0.67292243 -0.2516886
0.106184795 -0.70923656 -0.060561646 -0.45293495 0.19936505 0.28619903 0.51034737 0.34696677
-0.28278345 -0.18521062 -0.28052312 0.5332849 -0.15221319 -0.15593888 0.19016421 -0.21903609
-0.29476306 0.20575114 0.22938906 0.4165027 0.4609348 -0.084098294 -0.23785415 0.5345039
0.09467715 -0.53136724 0.3236238 -0.5322059 -0.53145474 -0.46914536 -0.023588218 -0.2918336
0.29240838 0.69503134 0.52507126 0.44237518 0.113950536 0.47559822 0.22827186 -0.23438554
0.52009475 -0.18583031 0.5738219 0.1777074 -0.05063731 0.015846645 0.01786976 0.31066138
0.21073487 0.55081105 -0.26209155 0.684979 0.76325405 0.3142225 -0.053695645 0.34613228
-0.18353239 0.24120624 -0.122942254 0.4009404 -0.19947399 -0.44271684 -0.45715377 0.25794575
0.23419507 0.88369155 -0.054230783 -0.3028427 -0.5103147 -0.3966108 0.41837305 -0.24835472
0.23683684 -0.19752762 -0.20040378 -0.19240908 0.532143 0.8982988 0.44068652 0.64016354
-0.09024389 0.4689825 0.58379704 0.3720675 -0.27849573 0.29651615 0.5153465 -0.38588223
0.4193566 -0.23596829 0.6901295 -0.27081463 -0.021875115 -0.5879623 -0.17413655 -0.11217171
0.37145492 -0.5512139 -0.16249943 -0.15837942 0.5755676 0.6307105 -0.24840577 -0.1331853
-0.36497024 -0.20351474 -0.455346 -0.2211144 0.48339823 0.70740795 -0.11500995 0.43191627
-0.055897787 0.11804007 0.43505043 0.0057024844 -0.2568539 0.1885464 0.20773655 -0.46979535
0.034195587 -0.28108448 0.05866727 -0.4077968 0.09723637 0.4889638 0.10489666 0.41102174
-0.22071418 0.3635838 0.11973687 -0.46823066 0.5458433 0.33874217 0.34829107 0.3828768
0.4058555 0.19160908 0.33031404 0.022484204 0.67418325 -0.44014362 0.4821992 -0.45061368
-0.43555185 0.49968982 0.35616535 -0.11526394 -0.20047745 0.2185303 0.61450136 -0.08170188
0.028017396 -0.030566512 -0.2393468 0.790832 0.37816545 -0.058103915 0.18812186 -0.018440729
0.7299675 0.43986192 0.4905961 0.72959024 0.26378223 0.5444178 -0.09275521 0.28236648
0.15415095 0.16244927 0.32029107 0.054835342 -0.39768347 -0.36704898 0.26603013 0.22009455
0.35694113 0.15507683 0.03348572 0.69371104 0.51055914 0.7704911 -0.006027999 0.46551234
0.116517134 -0.36673495 -0.15286577 -0.17019638 0.24705236 -0.261129 -0.20724294 0.110337906
0.49349207 0.058648895 -0.084021404 -0.23019974 0.0073311953 -0.25752717 -0.26123813 0.6644316
0.081397526 0.31211528 0.137089 0.44241303 0.10378508 0.47306082 0.2565287 0.2629439

l1.bias f4 [8]
00000000: dd86 423f 1f0c 083f 2aa2 353f 81db fe3e
00000010: e5f0 bb3e b1fc 123f aa33 3c3f 5559 033f
0.75987035 0.53143495 0.7095057 0.49776843 0.36707225 0.57416826 0.73516333 0.51308185

l2.weight f4 [8, 8]
00000000: 342b 933d 3a47 073f 526d 80bf d44f 1a3f
00000010: 8ab0 353f 3be7 67bf 9ae4 853f 338d cfbd
00000020: d4fa 45bf c335 9b3b 5c50 c23f c36b a73f
00000030: d58b 053e 2b8e f2bd c7bc 1a3f 824a 7a3f
00000040: 8db8 0c3f 2938 c5be 3219 59bf 391e 3f3f
00000050: 04dc 9e3f 405b a73f 2474 bf3e 76e0 5d3e
00000060: fd3c c3bd ade2 363f 6647 29bf 420c 4a3f
00000070: 9e1c 133f 9ee3 79bf 6623 063f 013b 78bf
00000080: 44fd 26bf abe3 5cbf 3ea5 b63f 7e9f 193f
00000090: 7152 1bbf a7bb 003f 3364 673f a78d 923f
000000a0: c15e a23f 0aa9 643f cc56 203f c703 87bf
000000b0: c4f3 e4be c02d 0cbf 0ed3 783f 612e 3ebf
000000c0: a060 603d cd92 61be c723 173d 6ca6 013e
000000d0: 4c57 693e c2cf a0be 7820 51b8 e846 59be
000000e0: f6a9 9fbf 3041 873f ea7e 01bf 8c92 663f
000000f0: ae49 843f c7a7 04bf 912c 7b3f 1b07 ec3e
0.07185975 0.5284306 -1.0033362 0.6027806 0.709725 -0.90587205 1.0460389 -0.101343535
-0.7733586 0.0047366335 1.5180774 1.3079761 0.13041623 -0.11843523 0.604443 0.9776994
0.549691 -0.3851941 -0.8480407 0.7465549 1.2410893 1.3074722 0.37393296 0.21667656
-0.09533117 0.7143963 -0.6612457 0.78924954 0.5746554 -0.9761294 0.52397764 -0.9696503
-0.652302 -0.86284894 1.4269178 0.6000899 -0.6067267 0.50286335 0.90387267 1.1449479
1.2685167 0.89320433 0.6263244 -1.0548028 -0.44717228 -0.5475731 0.97197044 -0.7428952
0.05477965 -0.22028656 0.036899354 0.12661141 0.22787207 -0.31408507 -4.9859722e-05 -0.21218455
-1.2473743 1.0566769 -0.5058428 0.9006736 1.0334985 -0.5181851 0.9811488 0.4609917

l2.bias f4 [8]
00000000: cb5b 673e b77c 443e 393e 8d3e c072 bd3e
00000010: 442a 973e b717 0a3f 4515 37be 7d3e debc
0.2259361 0.191882 0.27586535 0.3700161 0.29524434 0.53942436 -0.17879207 -0.027129406

l3.weight f4 [7, 8]
00000000: 24d0 75bc 4d6c a8be a98f 9e3d b83c 62bf
00000010: 9be5 86be a526 b5bf 232c 1c3e e7f0 283f
00000020: 481a 2e3f b846 e0bf 0670 60bf d2ed 183f
00000030: 7681 8ebf 7f63 083f 42a0 5f3e 3480 bbb8
00000040: e548 2abf b030 6fbe 0589 a9bf 8d72 acbe
00000050: 8c95 5abe 14f5 813f f7f3 94be 63f6 19bf
00000060: 3d82 1fbf f3dd e43e a7e5 89be c256 3bbf
00000070: 3cbb 073f a134 acbf bdf1 983d 640d 95bf
00000080: 4420 9fbd 06ad 763e dfda b4bf 67c9 17bf
00000090: 81a2 813e e629 68bf 970d 5b3e 63da 173f
000000a0: e0b0 64be ca14 a3bf 4a07 543f 8cf3 23bf
000000b0: 92a3 00bf 4e5d 44bf 390a 6fbe 041a 33bf
000000c0: e3ef da3e d951 853b 51cf 25bf c8b1 5b3f
000000d0: 6b37 93bf 0f59 4abf e27b 363e 860f 443f
-0.015003238 -0.32895127 0.07742245 -0.883739 -0.2634705 -1.4152418 0.15251212 0.6599259
0.6800885 -1.7521582 -0.87670934 0.59737885 -1.1133258 0.5327682 0.21838477 -8.9407346e-05
-0.6651748 -0.23358417 -1.324494 -0.33681145 -0.2134611 1.0152917 -0.2909238 -0.6014158
-0.623081 0.44700584 -0.26933023 -0.73179257 0.5302007 -1.3453561 0.07467983 -1.1644711
-0.07769826 0.2408944 -1.4129294 -0.5929169 0.25319293 -0.9068893 0.21391903 0.59317607
-0.22333097 -1.2740719 0.8282362 -0.640435 -0.5024959 -0.7670487 -0.23343743 -0.6996157
0.42761144 0.004068595 -0.64769465 0.8581815 -1.1501287 -0.7904214 0.17820695 0.76586187

l3.bias f4 [7]
00000000: 223f 59bf f628 9ebe 2d64 d13d e90c 603f
00000010: bbca 31bf ef2a 263f a1f8 a2be
-0.8486196 -0.30890626 0.10224185 0.875197 -0.6944997 0.6490926 -0.31830314
